…
2021-02-03 14:23:04,469:INFO:Converting train labels to array...
2021-02-03 14:23:04,470:INFO:Converting test labels to array...
2021-02-03 14:23:04,470:INFO:============== Step 3: Model compilation ==============
2021-02-03 14:23:04,471:INFO:Building model...
2021-02-03 14:23:04,544:INFO:Model: "sequential"
2021-02-03 14:23:04,544:INFO:_________________________________________________________________
2021-02-03 14:23:04,544:INFO:Layer (type)                 Output Shape              Param #   
2021-02-03 14:23:04,545:INFO:=================================================================
2021-02-03 14:23:04,545:INFO:conv3d (Conv3D)              (None, 6, 60, 60, 64)     640       
2021-02-03 14:23:04,545:INFO:_________________________________________________________________
2021-02-03 14:23:04,545:INFO:max_pooling3d (MaxPooling3D) (None, 3, 30, 30, 64)     0         
2021-02-03 14:23:04,545:INFO:_________________________________________________________________
2021-02-03 14:23:04,545:INFO:conv3d_1 (Conv3D)            (None, 3, 28, 28, 64)     36928     
2021-02-03 14:23:04,545:INFO:_________________________________________________________________
2021-02-03 14:23:04,546:INFO:max_pooling3d_1 (MaxPooling3 (None, 1, 14, 14, 64)     0         
2021-02-03 14:23:04,546:INFO:_________________________________________________________________
2021-02-03 14:23:04,546:INFO:conv3d_2 (Conv3D)            (None, 1, 12, 12, 64)     36928     
2021-02-03 14:23:04,546:INFO:_________________________________________________________________
2021-02-03 14:23:04,546:INFO:flatten (Flatten)            (None, 9216)              0         
2021-02-03 14:23:04,546:INFO:_________________________________________________________________
2021-02-03 14:23:04,546:INFO:dropout (Dropout)            (None, 9216)              0         
2021-02-03 14:23:04,546:INFO:_________________________________________________________________
2021-02-03 14:23:04,546:INFO:dense (Dense)                (None, 32)                294944    
2021-02-03 14:23:04,546:INFO:_________________________________________________________________
2021-02-03 14:23:04,546:INFO:dense_1 (Dense)              (None, 32)                1056      
2021-02-03 14:23:04,547:INFO:_________________________________________________________________
2021-02-03 14:23:04,547:INFO:dense_2 (Dense)              (None, 1)                 33        
2021-02-03 14:23:04,547:INFO:=================================================================
2021-02-03 14:23:04,547:INFO:Total params: 370,529
2021-02-03 14:23:04,547:INFO:Trainable params: 370,529
2021-02-03 14:23:04,547:INFO:Non-trainable params: 0
2021-02-03 14:23:04,547:INFO:_________________________________________________________________
2021-02-03 14:23:04,547:INFO:Compiling the model...
…
