…
2021-02-04 16:33:30,667:INFO:Converting train labels to array...
2021-02-04 16:33:30,668:INFO:Converting test labels to array...
2021-02-04 16:33:30,668:INFO:============== Step 3: Model compilation ==============
2021-02-04 16:33:30,668:INFO:Building model...
2021-02-04 16:33:31,227:INFO:Model: "sequential"
2021-02-04 16:33:31,227:INFO:_________________________________________________________________
2021-02-04 16:33:31,227:INFO:Layer (type)                 Output Shape              Param #   
2021-02-04 16:33:31,228:INFO:=================================================================
2021-02-04 16:33:31,228:INFO:conv3d (Conv3D)              (None, 6, 60, 60, 64)     640       
2021-02-04 16:33:31,228:INFO:_________________________________________________________________
2021-02-04 16:33:31,228:INFO:max_pooling3d (MaxPooling3D) (None, 3, 30, 30, 64)     0         
2021-02-04 16:33:31,228:INFO:_________________________________________________________________
2021-02-04 16:33:31,228:INFO:conv3d_1 (Conv3D)            (None, 3, 28, 28, 64)     36928     
2021-02-04 16:33:31,228:INFO:_________________________________________________________________
2021-02-04 16:33:31,228:INFO:max_pooling3d_1 (MaxPooling3 (None, 1, 14, 14, 64)     0         
2021-02-04 16:33:31,228:INFO:_________________________________________________________________
2021-02-04 16:33:31,228:INFO:conv3d_2 (Conv3D)            (None, 1, 12, 12, 64)     36928     
2021-02-04 16:33:31,229:INFO:_________________________________________________________________
2021-02-04 16:33:31,229:INFO:flatten (Flatten)            (None, 9216)              0         
2021-02-04 16:33:31,229:INFO:_________________________________________________________________
2021-02-04 16:33:31,229:INFO:dropout (Dropout)            (None, 9216)              0         
2021-02-04 16:33:31,229:INFO:_________________________________________________________________
2021-02-04 16:33:31,229:INFO:dense (Dense)                (None, 32)                294944    
2021-02-04 16:33:31,229:INFO:_________________________________________________________________
2021-02-04 16:33:31,229:INFO:dense_1 (Dense)              (None, 32)                1056      
2021-02-04 16:33:31,229:INFO:_________________________________________________________________
2021-02-04 16:33:31,229:INFO:dense_2 (Dense)              (None, 1)                 33        
2021-02-04 16:33:31,231:INFO:=================================================================
2021-02-04 16:33:31,231:INFO:Total params: 370,529
2021-02-04 16:33:31,232:INFO:Trainable params: 370,529
2021-02-04 16:33:31,232:INFO:Non-trainable params: 0
2021-02-04 16:33:31,232:INFO:_________________________________________________________________
2021-02-04 16:33:31,232:INFO:Compiling the model...
…
