…
2021-02-05 04:44:30,121:INFO:Converting train labels to array...
2021-02-05 04:44:30,125:INFO:Converting test labels to array...
2021-02-05 04:44:30,126:INFO:============== Step 3: Model compilation ==============
2021-02-05 04:44:30,126:INFO:Building model...
2021-02-05 04:44:30,210:INFO:Model: "sequential"
2021-02-05 04:44:30,210:INFO:_________________________________________________________________
2021-02-05 04:44:30,210:INFO:Layer (type)                 Output Shape              Param #   
2021-02-05 04:44:30,210:INFO:=================================================================
2021-02-05 04:44:30,211:INFO:conv3d (Conv3D)              (None, 6, 60, 60, 64)     640       
2021-02-05 04:44:30,211:INFO:_________________________________________________________________
2021-02-05 04:44:30,211:INFO:max_pooling3d (MaxPooling3D) (None, 3, 30, 30, 64)     0         
2021-02-05 04:44:30,211:INFO:_________________________________________________________________
2021-02-05 04:44:30,211:INFO:conv3d_1 (Conv3D)            (None, 3, 28, 28, 64)     36928     
2021-02-05 04:44:30,211:INFO:_________________________________________________________________
2021-02-05 04:44:30,211:INFO:max_pooling3d_1 (MaxPooling3 (None, 1, 14, 14, 64)     0         
2021-02-05 04:44:30,211:INFO:_________________________________________________________________
2021-02-05 04:44:30,211:INFO:conv3d_2 (Conv3D)            (None, 1, 12, 12, 64)     36928     
2021-02-05 04:44:30,211:INFO:_________________________________________________________________
2021-02-05 04:44:30,211:INFO:flatten (Flatten)            (None, 9216)              0         
2021-02-05 04:44:30,212:INFO:_________________________________________________________________
2021-02-05 04:44:30,212:INFO:dropout (Dropout)            (None, 9216)              0         
2021-02-05 04:44:30,212:INFO:_________________________________________________________________
2021-02-05 04:44:30,212:INFO:dense (Dense)                (None, 32)                294944    
2021-02-05 04:44:30,212:INFO:_________________________________________________________________
2021-02-05 04:44:30,212:INFO:dense_1 (Dense)              (None, 32)                1056      
2021-02-05 04:44:30,212:INFO:_________________________________________________________________
2021-02-05 04:44:30,212:INFO:dense_2 (Dense)              (None, 1)                 33        
2021-02-05 04:44:30,214:INFO:=================================================================
2021-02-05 04:44:30,214:INFO:Total params: 370,529
2021-02-05 04:44:30,214:INFO:Trainable params: 370,529
2021-02-05 04:44:30,214:INFO:Non-trainable params: 0
2021-02-05 04:44:30,215:INFO:_________________________________________________________________
2021-02-05 04:44:30,215:INFO:Compiling the model...
…
